_________________________________________________________________
Layer (type)                 Output Shape              Param #   
=================================================================
input_1 (InputLayer)         (None, 8000)              0         
_________________________________________________________________
gaussian_noise_1 (GaussianNo (None, 8000)              0         
_________________________________________________________________
dropout_1 (Dropout)          (None, 8000)              0         
_________________________________________________________________
dense_1 (Dense)              (None, 200)               1600200   
=================================================================
Total params: 1,600,200
Trainable params: 1,600,200
Non-trainable params: 0
_________________________________________________________________
_________________________________________________________________
Layer (type)                 Output Shape              Param #   
=================================================================
input_2 (InputLayer)         (None, 200)               0         
_________________________________________________________________
dense_2 (Dense)              (None, 8000)              1608000   
=================================================================
Total params: 1,608,000
Trainable params: 1,608,000
Non-trainable params: 0
_________________________________________________________________
_________________________________________________________________
Layer (type)                 Output Shape              Param #   
=================================================================
input_1 (InputLayer)         (None, 8000)              0         
_________________________________________________________________
gaussian_noise_1 (GaussianNo (None, 8000)              0         
_________________________________________________________________
dropout_1 (Dropout)          (None, 8000)              0         
_________________________________________________________________
dense_1 (Dense)              (None, 200)               1600200   
_________________________________________________________________
dense_2 (Dense)              (None, 8000)              1608000   
=================================================================
Total params: 3,208,200
Trainable params: 3,208,200
Non-trainable params: 0
_________________________________________________________________
Train on 13584 samples, validate on 3396 samples
Epoch 1/20

   64/13584 [..............................] - ETA: 5:27 - loss: 0.9115 - acc: 0.9924
  320/13584 [..............................] - ETA: 1:06 - loss: 0.8468 - acc: 0.9920
…
12864/13584 [===========================>..] - ETA: 0s - loss: 0.1262 - acc: 0.9919
13120/13584 [===========================>..] - ETA: 0s - loss: 0.1274 - acc: 0.9919
13376/13584 [============================>.] - ETA: 0s - loss: 0.1286 - acc: 0.9919
13584/13584 [==============================] - 3s 239us/step - loss: 0.1294 - acc: 0.9919 - val_loss: 0.1850 - val_acc: 0.9910
_________________________________________________________________
Layer (type)                 Output Shape              Param #   
=================================================================
input_3 (InputLayer)         (None, 200)               0         
_________________________________________________________________
gaussian_noise_2 (GaussianNo (None, 200)               0         
_________________________________________________________________
dropout_2 (Dropout)          (None, 200)               0         
_________________________________________________________________
dense_3 (Dense)              (None, 50)                10050     
=================================================================
Total params: 10,050
Trainable params: 10,050
Non-trainable params: 0
_________________________________________________________________
_________________________________________________________________
Layer (type)                 Output Shape              Param #   
=================================================================
input_4 (InputLayer)         (None, 50)                0         
_________________________________________________________________
dense_4 (Dense)              (None, 200)               10200     
=================================================================
Total params: 10,200
Trainable params: 10,200
Non-trainable params: 0
_________________________________________________________________
_________________________________________________________________
Layer (type)                 Output Shape              Param #   
=================================================================
input_3 (InputLayer)         (None, 200)               0         
_________________________________________________________________
gaussian_noise_2 (GaussianNo (None, 200)               0         
_________________________________________________________________
dropout_2 (Dropout)          (None, 200)               0         
_________________________________________________________________
dense_3 (Dense)              (None, 50)                10050     
_________________________________________________________________
dense_4 (Dense)              (None, 200)               10200     
=================================================================
Total params: 20,250
Trainable params: 20,250
Non-trainable params: 0
_________________________________________________________________
Train on 13584 samples, validate on 3396 samples
Epoch 1/20

   64/13584 [..............................] - ETA: 30s - loss: 0.4334 - acc: 0.9428
  640/13584 [>.............................] - ETA: 4s - loss: 0.3279 - acc: 0.9511 
…
12608/13584 [==========================>...] - ETA: 0s - loss: 0.0285 - acc: 0.9533
13248/13584 [============================>.] - ETA: 0s - loss: 0.0282 - acc: 0.9533
13584/13584 [==============================] - 1s 82us/step - loss: 0.0283 - acc: 0.9533 - val_loss: 0.0190 - val_acc: 0.9528
__________________________________________________________________________________________________
Layer (type)                    Output Shape         Param #     Connected to                     
==================================================================================================
item_feat_input (InputLayer)    (None, 8000)         0                                            
__________________________________________________________________________________________________
item_input (InputLayer)         (None, 1)            0                                            
__________________________________________________________________________________________________
user_input (InputLayer)         (None, 1)            0                                            
__________________________________________________________________________________________________
model_2 (Model)                 (None, 200)          1600200     item_feat_input[0][0]            
__________________________________________________________________________________________________
item_offset_vector (Embedding)  (None, 1, 50)        849000      item_input[0][0]                 
__________________________________________________________________________________________________
user_embedding (Embedding)      (None, 1, 50)        277600      user_input[0][0]                 
__________________________________________________________________________________________________
model_5 (Model)                 (None, 50)           10050       model_2[1][0]                    
__________________________________________________________________________________________________
item_flatten (Flatten)          (None, 50)           0           item_offset_vector[0][0]         
__________________________________________________________________________________________________
user_flatten (Flatten)          (None, 50)           0           user_embedding[0][0]             
__________________________________________________________________________________________________
add_1 (Add)                     (None, 50)           0           model_5[1][0]                    
                                                                 item_flatten[0][0]               
__________________________________________________________________________________________________
model_6 (Model)                 (None, 200)          10200       model_5[1][0]                    
__________________________________________________________________________________________________
dot_layer (Dot)                 (None, 1)            0           user_flatten[0][0]               
                                                                 add_1[0][0]                      
__________________________________________________________________________________________________
model_3 (Model)                 (None, 8000)         1608000     model_6[1][0]                    
==================================================================================================
Total params: 4,355,050
Trainable params: 4,355,050
Non-trainable params: 0
__________________________________________________________________________________________________
Train on 55510 samples, validate on 149476 samples
Epoch 1/50

   64/55510 [..............................] - ETA: 9:17 - loss: 87807.3672 - dot_layer_loss: 49.4868 - model_3_loss: 0.0220 - dot_layer_acc: 0.0625 - model_3_acc: 0.0000e+00
…
