_________________________________________________________________
Layer (type)                 Output Shape              Param #   
=================================================================
input_1 (InputLayer)         (None, 8000)              0         
_________________________________________________________________
gaussian_noise_1 (GaussianNo (None, 8000)              0         
_________________________________________________________________
dropout_1 (Dropout)          (None, 8000)              0         
_________________________________________________________________
dense_1 (Dense)              (None, 200)               1600200   
=================================================================
Total params: 1,600,200
Trainable params: 1,600,200
Non-trainable params: 0
_________________________________________________________________
_________________________________________________________________
Layer (type)                 Output Shape              Param #   
=================================================================
input_2 (InputLayer)         (None, 200)               0         
_________________________________________________________________
dense_2 (Dense)              (None, 8000)              1608000   
=================================================================
Total params: 1,608,000
Trainable params: 1,608,000
Non-trainable params: 0
_________________________________________________________________
_________________________________________________________________
Layer (type)                 Output Shape              Param #   
=================================================================
input_1 (InputLayer)         (None, 8000)              0         
_________________________________________________________________
gaussian_noise_1 (GaussianNo (None, 8000)              0         
_________________________________________________________________
dropout_1 (Dropout)          (None, 8000)              0         
_________________________________________________________________
dense_1 (Dense)              (None, 200)               1600200   
_________________________________________________________________
dense_2 (Dense)              (None, 8000)              1608000   
=================================================================
Total params: 3,208,200
Trainable params: 3,208,200
Non-trainable params: 0
_________________________________________________________________
Epoch 1/20

   64/16980 [..............................] - ETA: 7:03 - loss: 0.8076 - acc: 0.0000e+00
  256/16980 [..............................] - ETA: 1:48 - loss: 0.7161 - acc: 0.0000e+00
…
16384/16980 [===========================>..] - ETA: 0s - loss: 0.0300 - acc: 0.0150
16576/16980 [============================>.] - ETA: 0s - loss: 0.0299 - acc: 0.0149
16768/16980 [============================>.] - ETA: 0s - loss: 0.0302 - acc: 0.0150
16960/16980 [============================>.] - ETA: 0s - loss: 0.0301 - acc: 0.0150
16980/16980 [==============================] - 5s 269us/step - loss: 0.0301 - acc: 0.0150
_________________________________________________________________
Layer (type)                 Output Shape              Param #   
=================================================================
input_3 (InputLayer)         (None, 200)               0         
_________________________________________________________________
gaussian_noise_2 (GaussianNo (None, 200)               0         
_________________________________________________________________
dropout_2 (Dropout)          (None, 200)               0         
_________________________________________________________________
dense_3 (Dense)              (None, 50)                10050     
=================================================================
Total params: 10,050
Trainable params: 10,050
Non-trainable params: 0
_________________________________________________________________
_________________________________________________________________
Layer (type)                 Output Shape              Param #   
=================================================================
input_4 (InputLayer)         (None, 50)                0         
_________________________________________________________________
dense_4 (Dense)              (None, 200)               10200     
=================================================================
Total params: 10,200
Trainable params: 10,200
Non-trainable params: 0
_________________________________________________________________
_________________________________________________________________
Layer (type)                 Output Shape              Param #   
=================================================================
input_3 (InputLayer)         (None, 200)               0         
_________________________________________________________________
gaussian_noise_2 (GaussianNo (None, 200)               0         
_________________________________________________________________
dropout_2 (Dropout)          (None, 200)               0         
_________________________________________________________________
dense_3 (Dense)              (None, 50)                10050     
_________________________________________________________________
dense_4 (Dense)              (None, 200)               10200     
=================================================================
Total params: 20,250
Trainable params: 20,250
Non-trainable params: 0
_________________________________________________________________
Epoch 1/20

   64/16980 [..............................] - ETA: 29s - loss: 0.1826 - acc: 0.0000e+00
  768/16980 [>.............................] - ETA: 3s - loss: 0.1666 - acc: 0.0065     
 1536/16980 [=>............................] - ETA: 2s - loss: 0.1483 - acc: 0.0306
…
14976/16980 [=========================>....] - ETA: 0s - loss: 0.0047 - acc: 1.0000
15872/16980 [===========================>..] - ETA: 0s - loss: 0.0046 - acc: 1.0000
16704/16980 [============================>.] - ETA: 0s - loss: 0.0045 - acc: 1.0000
16980/16980 [==============================] - 1s 60us/step - loss: 0.0045 - acc: 1.0000
__________________________________________________________________________________________________
Layer (type)                    Output Shape         Param #     Connected to                     
==================================================================================================
item_feat_input (InputLayer)    (None, 8000)         0                                            
__________________________________________________________________________________________________
item_input (InputLayer)         (None, 1)            0                                            
__________________________________________________________________________________________________
user_input (InputLayer)         (None, 1)            0                                            
__________________________________________________________________________________________________
model_2 (Model)                 (None, 200)          1600200     item_feat_input[0][0]            
__________________________________________________________________________________________________
item_offset_vector (Embedding)  (None, 1, 50)        849000      item_input[0][0]                 
__________________________________________________________________________________________________
user_embedding (Embedding)      (None, 1, 50)        277600      user_input[0][0]                 
__________________________________________________________________________________________________
model_5 (Model)                 (None, 50)           10050       model_2[1][0]                    
__________________________________________________________________________________________________
item_flatten (Flatten)          (None, 50)           0           item_offset_vector[0][0]         
__________________________________________________________________________________________________
user_flatten (Flatten)          (None, 50)           0           user_embedding[0][0]             
__________________________________________________________________________________________________
add_1 (Add)                     (None, 50)           0           model_5[1][0]                    
                                                                 item_flatten[0][0]               
__________________________________________________________________________________________________
model_6 (Model)                 (None, 200)          10200       model_5[1][0]                    
__________________________________________________________________________________________________
dot_layer (Dot)                 (None, 1)            0           user_flatten[0][0]               
                                                                 add_1[0][0]                      
__________________________________________________________________________________________________
model_3 (Model)                 (None, 8000)         1608000     model_6[1][0]                    
==================================================================================================
Total params: 4,355,050
Trainable params: 4,355,050
Non-trainable params: 0
__________________________________________________________________________________________________
Train on 55510 samples, validate on 149476 samples
Epoch 1/50

   64/55510 [..............................] - ETA: 8:32 - loss: 87687.7344 - dot_layer_loss: 41.0788 - model_3_loss: 0.0195 - dot_layer_acc: 0.0469 - model_3_acc: 0.0312
…
